web_app/essay_scoring_model/lora_v2_5_model/regression_head.pt (torch, 16904 bytes, 2 tensors)

weight f4 [5, 768]
0.013832912 -0.02512274 -0.006295239 0.015330113 -0.016181976 0.0039871475 0.019031694 0.0054660407
0.00013159704 0.018908096 -0.02097898 0.0016027462 -0.0075526247 -0.042418387 0.0034846761 0.013941559
0.007660158 -0.029225133 0.0061926804 0.014674214 0.012781543 0.020293135 -0.005503163 0.019380875
-0.020044487 -0.00355873 -0.031854518 -0.0066651423 -0.03933105 0.0052942694 0.0065374565 -0.036802374
-0.009830576 0.00860348 -0.03177973 0.016055712 -0.026091589 -0.023336284 0.008902353 -0.012825275
-0.03072882 0.025715617 0.0057399287 0.027359962 -0.038228642 0.027752303 0.016577477 -0.027592532
0.02271056 -0.0005504036 0.010354656 0.0109669985 0.022777835 0.017785523 0.0015000077 -0.002425735
0.024036087 0.034217503 0.007922243 -0.016266417 0.0213322 0.04124413 -0.01589185 -0.034387473
0.038116064 -0.003431562 -0.04009341 -0.029708011 -0.025730193 -0.020267613 -0.023157012 -0.04514735
-0.011543334 -0.02119715 0.010715396 -0.004480109 0.014437624 -0.023446526 0.003926593 -0.007884523
0.024199864 0.018857358 0.04180945 -0.035651937 0.0077137123 -0.017959855 -0.012483706 -0.021612994
0.040019505 0.0076798648 -0.026522039 0.02468453 -0.025493795 -0.03330181 0.016332915 -0.031925257
0.02345697 0.017184697 0.0020418265 -0.021940224 0.02532881 0.016434768 -0.022693438 0.022914201
-0.038459275 0.0018475025 -0.024041906 -0.035992533 0.0160102 0.030937802 0.018980311 0.012718352
0.0022350457 -0.042250857 0.013393747 -0.031590823 0.032441318 0.013716817 -0.037546623 -0.012290989
-0.055039924 -0.019881558 -0.049507566 0.01475605 -0.0051301457 0.0002636891 0.009590886 0.0077726454
-0.010554228 -0.051805425 0.001463505 -0.030601617 -0.025702693 0.01244125 -0.03415606 0.0045522107
0.026595242 -0.026086316 0.022072352 -0.04040135 -0.025581162 0.013955859 -0.0044609117 -0.01503835
-0.018431764 -0.021595145 0.026458824 -0.013715323 0.035791315 -0.027149558 -0.010516812 0.01408646
-0.031035237 -0.0377184 0.013973935 -0.004240866 0.013162687 -0.0036505875 -0.005445778 -0.038527735
0.019175814 0.02060076 0.047869533 -0.004651935 0.020363832 0.007838102 -0.042982887 -0.009339583
0.005718713 -0.027934887 -0.04410527 -0.024740841 -0.021264384 0.006897912 0.056738637 -0.0075633386
0.032832887 -0.019597884 0.008303516 -0.02467565 0.011135034 -0.02100488 -0.027419563 -0.01885975
-0.03783403 -0.029785879 -0.027390169 -0.0076468205 -0.006398642 0.039532714 0.021631148 0.008529327
-0.003733641 -0.0041941684 0.014959521 0.017188668 0.01265537 0.020925237 -0.008618744 0.010417825
-0.019093744 0.005178476 -0.0410816 -0.014888093 0.0010859038 -0.030693173 0.02118393 0.008784664
0.0058542113 0.016124072 -0.017663656 -0.028859278 0.016487138 -0.032572404 0.043085005 0.036179543
0.026464209 0.0024850252 -0.035775095 0.02811821 -0.027683908 -0.024954174 -0.012647728 0.0021216723
-0.0072983634 0.032811616 -0.03161591 0.014418006 -0.001635219 -0.046592638 -0.005101353 -0.007993014
-0.0128475 -0.0076686796 0.01605398 0.0073849345 0.028732229 0.007032828 0.010148348 -0.014659578
-0.00935172 -0.023892663 0.010906453 -0.029190958 0.0110454345 0.04752284 0.014235832 -0.041868664
0.0056432257 0.004563867 -0.038318 0.021949219 -0.03562437 -0.018032989 -0.011115168 -0.039752398
00000000: 70a3 623c 34ce cdbc 4b48 cebb 272b 7b3c
00000010: 1090 84bc 9ea6 823b 5be8 9b3c 791c b33b
00000020: 50fd 0939 27e5 9a3c 1cdc abbc 3d13 d23a
00000030: 027c f7bb e7be 2dbd 2a5f 643b 236b 643c
00000040: 1002 fb3b 8c69 efbc f8eb ca3b 1d6c 703c
00000050: ad69 513c ca3d a63c e153 b4bb a4c4 9e3c
00000060: 5634 a4bc 9539 69bb e279 02bd 4467 dabb
00000070: 9819 21bd 8d7b ad3b 2938 d63b 16be 16bd
00000080: 6d10 21bc 9cf5 0c3c 762b 02bd 4587 833c
00000090: 07be d5bc bc2b bfbc 2ddb 113c 1a21 52bc
000000a0: 02bb fbbc 8fa9 d23c 0316 bc3b 0022 e03c
000000b0: a395 1cbd cc58 e33c 7dcd 873c bc09 e2bc
000000c0: 7f0b ba3c f648 10ba 93a6 293c edae 333c
000000d0: 9598 ba3c f2b2 913c e89b c43a 14f9 1ebb
000000e0: 54e7 c43c a727 0c3d 4ccc 013c 2641 85bc
000000f0: dec0 ae3c 9bef 283d a02f 82bc e1d9 0cbd
00000100: 971f 1c3d 0fe4 60bb fd38 24bd 375e f3bc
00000110: 20c8 d2bc 4408 a6bc c6b3 bdbc 6dec 38bd
00000120: 4120 3dbc a5a5 adbc a18f 2f3c e1cd 92bb
00000130: c98b 6c3c ee12 c0bc a6aa 803b 162e 01bc
00000140: cb3e c63c bf7a 9a3c 6340 2b3d c407 12bd
00000150: 4fc3 fc3b 8c20 93bc 7588 4cbc bc0d b1bc
00000160: 7eeb 233d 60a7 fb3b bf44 d9bc 3637 ca3c
00000170: 5dd8 d0bc 7b67 08bd 9bcc 853c 0fc4 02bd
00000180: d528 c03c ecc6 8c3c 2ad0 053b fcbb b3bc
00000190: 5d7e cf3c 35a2 863c 97e7 b9bc 90b6 bb3c
000001a0: 7987 1dbd e627 f23a 88f3 c4bc e86c 13bd
000001b0: d327 833c 4671 fd3c 997c 9b3c a260 503c
000001c0: d879 123b 3c0f 2dbd 7271 5b3c 6165 01bd
000001d0: 30e1 043d 80bc 603c 7dca 19bd 2560 49bc
000001e0: 8b71 61bd a6de a2bc 72c8 4abd 5cc3 713c
000001f0: c81a a8bb c03f 8a39 1723 1d3c adb1 fe3b
00000200: a4eb 2cbc ed31 54bd 14d3 bf3a 3eb0 fabc
00000210: 748e d2bc 62d6 4b3c 3ae7 0bbd b62a 953b
00000220: 44de d93c f8b2 d5bc 14d1 b43c e37b 25bd
00000230: 968f d1bc 1da7 643c d72c 92bb 6963 76bc
00000240: 36fe 96bc 4de8 b0bc 2dc0 d83c 3cb6 60bc
00000250: ea99 123d c068 debc b54e 2cbc e5ca 663c
00000260: 9c3d febc 9c7e 1abd eef2 643c f6f6 8abb
00000270: 50a8 573c b23e 6fbb 7f72 b2bb 42cf 1dbd
00000280: 9916 9d3c edc2 a83c d812 443d 426f 98bb
00000290: 0dd2 a63c 626b 003c d30e 30bd 0d05 19bc
000002a0: 0b64 bb3b b4d7 e4bc baa7 34bd 4ead cabc
000002b0: a532 aebc e107 e23b c666 683d e2d5 f7bb
000002c0: c77b 063d be8b a0bc 780b 083c 9724 cabc
000002d0: b86f 363c 6d12 acbc fe9e e0bc c37f 9abc
000002e0: dbf7 1abd 8401 f4bc 5961 e0bc 2e92 fabb
000002f0: b3ab d1bb 0eed 213d ce33 b13c 97be 0b3c
00000300: 1ab0 74bb 3c6f 89bb c718 753c 40cf 8c3c
00000310: 7858 4f3c 676b ab3c a235 0dbc 86af 2a3c
00000320: 7c6a 9cbc 35b0 a93b 2e45 28bd 30ed 73bc
00000330: e354 8e3a 4070 fbbc ec89 ad3c 8ded 0f3c
00000340: afd4 bf3b a116 843c 5fb3 90bc 4b6a ecbc
00000350: 0910 873c a46a 05bd e779 303d 0031 143d
00000360: 78cb d83c cedb 223b e888 12bd 2958 e63c
00000370: 5dc9 e2bc b26c ccbc 6b38 4fbc c10b 0b3b
00000380: 1c27 efbb 7965 063d af7f 01bd 8039 6c3c
00000390: d854 d6ba ecd7 3ebd 4029 a7bb 21f5 02bc
000003a0: 527e 52bc 8c49 fbbb a383 833c 52fd f13b
000003b0: da5f eb3c a373 e63b 4245 263c ba2e 70bc
000003c0: f537 19bc 8cba c3bc fbb0 323c e021 efbc
000003d0: e9f7 343c 4fa7 423d 683d 693c 7a7e 2bbd
000003e0: cfea b83b 7e8c 953b 56f3 1cbd d9ce b33c
000003f0: dcea 11bd ebb9 93bc 651c 36bc 69d3 22bd

bias f4 [5]
0.027111677 -0.010748705 0.032735333 -0.005242095 0.03734767
00000000: 4f19 de3c 561b 30bc 7c15 063d e1c5 abbb
00000010: dff9 183d
